…
rompt" title=3D"click to scroll output; double click to hide"></div><div cl=
ass=3D"output"><div class=3D"output_area"><div class=3D"run_this_cell"></di=
v><div class=3D"prompt"></div><div class=3D"output_subarea output_text outp=
ut_stream output_stdout" dir=3D"auto"><pre>Model: "sequential"
_________________________________________________________________
Layer (type)                 Output Shape              Param #  =20
=3D=3D=3D=3D=3D=3D=3D=3D=3D=3D=3D=3D=3D=3D=3D=3D=3D=3D=3D=3D=3D=3D=3D=3D=3D=
=3D=3D=3D=3D=3D=3D=3D=3D=3D=3D=3D=3D=3D=3D=3D=3D=3D=3D=3D=3D=3D=3D=3D=3D=3D=
=3D=3D=3D=3D=3D=3D=3D=3D=3D=3D=3D=3D=3D=3D=3D
conv2d (Conv2D)              (None, 46, 46, 32)        320      =20
_________________________________________________________________
max_pooling2d (MaxPooling2D) (None, 23, 23, 32)        0        =20
_________________________________________________________________
conv2d_1 (Conv2D)            (None, 21, 21, 64)        18496    =20
_________________________________________________________________
max_pooling2d_1 (MaxPooling2 (None, 10, 10, 64)        0        =20
_________________________________________________________________
conv2d_2 (Conv2D)            (None, 8, 8, 64)          36928    =20
_________________________________________________________________
flatten (Flatten)            (None, 4096)              0        =20
_________________________________________________________________
dense (Dense)                (None, 64)                262208   =20
_________________________________________________________________
dense_1 (Dense)              (None, 7)                 455      =20
=3D=3D=3D=3D=3D=3D=3D=3D=3D=3D=3D=3D=3D=3D=3D=3D=3D=3D=3D=3D=3D=3D=3D=3D=3D=
=3D=3D=3D=3D=3D=3D=3D=3D=3D=3D=3D=3D=3D=3D=3D=3D=3D=3D=3D=3D=3D=3D=3D=3D=3D=
=3D=3D=3D=3D=3D=3D=3D=3D=3D=3D=3D=3D=3D=3D=3D
Total params: 318,407
Trainable params: 318,407
Non-trainable params: 0
_________________________________________________________________
</pre></div></div></div><div class=3D"btn btn-default output_collapsed" tit=
…
rompt" title=3D"click to scroll output; double click to hide"></div><div cl=
ass=3D"output"><div class=3D"output_area"><div class=3D"run_this_cell"></di=
v><div class=3D"prompt"></div><div class=3D"output_subarea output_text outp=
ut_stream output_stdout" dir=3D"auto"><pre>Model: "sequential_1"
_________________________________________________________________
Layer (type)                 Output Shape              Param #  =20
=3D=3D=3D=3D=3D=3D=3D=3D=3D=3D=3D=3D=3D=3D=3D=3D=3D=3D=3D=3D=3D=3D=3D=3D=3D=
=3D=3D=3D=3D=3D=3D=3D=3D=3D=3D=3D=3D=3D=3D=3D=3D=3D=3D=3D=3D=3D=3D=3D=3D=3D=
=3D=3D=3D=3D=3D=3D=3D=3D=3D=3D=3D=3D=3D=3D=3D
conv2d_3 (Conv2D)            (None, 48, 48, 64)        128      =20
_________________________________________________________________
batch_normalization (BatchNo (None, 48, 48, 64)        256      =20
_________________________________________________________________
dropout (Dropout)            (None, 48, 48, 64)        0        =20
_________________________________________________________________
conv2d_4 (Conv2D)            (None, 48, 48, 128)       73856    =20
_________________________________________________________________
batch_normalization_1 (Batch (None, 48, 48, 128)       512      =20
_________________________________________________________________
dropout_1 (Dropout)          (None, 48, 48, 128)       0        =20
_________________________________________________________________
conv2d_5 (Conv2D)            (None, 48, 48, 256)       819456   =20
_________________________________________________________________
batch_normalization_2 (Batch (None, 48, 48, 256)       1024     =20
_________________________________________________________________
max_pooling2d_2 (MaxPooling2 (None, 24, 24, 256)       0        =20
_________________________________________________________________
dropout_2 (Dropout)          (None, 24, 24, 256)       0        =20
_________________________________________________________________
flatten_1 (Flatten)          (None, 147456)            0        =20
_________________________________________________________________
dense_2 (Dense)              (None, 128)               18874496 =20
_________________________________________________________________
batch_normalization_3 (Batch (None, 128)               512      =20
_________________________________________________________________
activation (Activation)      (None, 128)               0        =20
_________________________________________________________________
dropout_3 (Dropout)          (None, 128)               0        =20
_________________________________________________________________
dense_3 (Dense)              (None, 256)               33024    =20
_________________________________________________________________
batch_normalization_4 (Batch (None, 256)               1024     =20
_________________________________________________________________
activation_1 (Activation)    (None, 256)               0        =20
_________________________________________________________________
dropout_4 (Dropout)          (None, 256)               0        =20
_________________________________________________________________
dense_4 (Dense)              (None, 7)                 1799     =20
=3D=3D=3D=3D=3D=3D=3D=3D=3D=3D=3D=3D=3D=3D=3D=3D=3D=3D=3D=3D=3D=3D=3D=3D=3D=
=3D=3D=3D=3D=3D=3D=3D=3D=3D=3D=3D=3D=3D=3D=3D=3D=3D=3D=3D=3D=3D=3D=3D=3D=3D=
=3D=3D=3D=3D=3D=3D=3D=3D=3D=3D=3D=3D=3D=3D=3D
Total params: 19,806,087
Trainable params: 19,804,423
Non-trainable params: 1,664
_________________________________________________________________
</pre></div></div></div><div class=3D"btn btn-default output_collapsed" tit=
…
